pytorch_basic/cifar_net.pth (torch_old, 249582 bytes, 10 tensors)

conv1.weight f4 [6, 3, 5, 5]
0	0xbe16063f	-0.1465082
1	0xbe088f43	-0.133359
2	0xbe4aeff8	-0.19818103
3	0xbe050c9c	-0.12993091
4	0xbe27bef0	-0.1638143
5	0xbe71bc4f	-0.2360699
6	0xbdd8cdf0	-0.105861545
7	0xbd859a87	-0.065236144
8	0xbe40402e	-0.18774483
9	0xbd96797d	-0.07347391
10	0xbea0888c	-0.31354177
11	0xbe08e68b	-0.13369195
12	0xbeb0780d	-0.3446659
13	0xbded68c7	-0.1159225
14	0xbe235e46	-0.15953931
15	0xbe9d5417	-0.30728218
16	0xbe362b40	-0.17789936
17	0xbe085f7b	-0.13317673
18	0xbe34d681	-0.17659952
19	0xbe80d1ae	-0.25159973
20	0xbdf00b4d	-0.117209055
21	0xbe13d403	-0.14436345
22	0xbe263050	-0.16229367
23	0xbd2cd75f	-0.04219758
24	0xbe8ded1a	-0.27719957
25	0x3d4dc853	0.050239872
26	0xbb868ebe	-0.0041063717
27	0xbd0bfd07	-0.034176853
28	0x3d4f886f	0.050667223
29	0xbd3240fa	-0.043518998
30	0x3d9b7037	0.07589763
31	0x3d5a5b85	0.053309936
32	0x3d36a31a	0.04458914
33	0x3d2dca06	0.042428993
34	0xbd98092e	-0.07423626
35	0xbd9d9f7b	-0.07696434
36	0x3a7d4ec0	0.0009662919
37	0x3de65495	0.112466015
38	0x3d3e07d1	0.046394173
39	0xbd22eec2	-0.03977848
40	0x3d9e6708	0.077344954
41	0xbd827d61	-0.063715704
42	0x3dae028c	0.084965795
43	0x3e177717	0.14791523
44	0x3db88287	0.09009271
45	0x3d39d8c3	0.045372736
46	0xbc79a321	-0.015236647
47	0xbdb85992	-0.09001459
48	0x3d23f13f	0.040024992
49	0xbe0408c4	-0.12893969
50	0x3de082d4	0.109624535
51	0x3e1d70a9	0.15375008
52	0x3e3f4d2f	0.18681787
53	0x3e62e1fd	0.2215652
54	0x3e67ed95	0.22649224
55	0x3e1b2753	0.1515172
56	0x3e217a0c	0.15769213
57	0x3e61bce0	0.22044706
58	0x3e32167d	0.17391391
59	0x3e381206	0.17975625
60	0x3e3b82b7	0.18311583
61	0x3dfbdc6b	0.12297901
62	0x3de76b18	0.112997234
63	0x3e251bf3	0.16123943
64	0x3d85ff10	0.0654279
65	0x3d3f2070	0.046661794
66	0x3e72e519	0.23720206
67	0x3dff8d75	0.12478153
68	0x3e54e713	0.20791273
69	0x3e62bb9a	0.22141877
70	0x3d76cfcb	0.06025676
71	0x3e6dbcd9	0.23216571
72	0x3c508c01	0.012728692
73	0x3ce83d90	0.028349668
74	0x3e0aeca5	0.13566835
75	0x3de1c7db	0.110244475
76	0x3d1c3e55	0.038145382
77	0xbd4cbfc5	-0.049987573
78	0xbcbdef5e	-0.023185428
79	0xbd0c4e65	-0.03425445
80	0x3de2fac9	0.1108299
81	0xbc61ae40	-0.013774455
82	0x3d220ff9	0.039566014
83	0xbdadc819	-0.08485431
84	0xbd8754a5	-0.066079415
85	0x3e451a98	0.19248426
86	0x3e09be81	0.13451578
87	0x3c99aaf4	0.018758275
88	0x3c0be642	0.008538784
89	0xbe00dcbf	-0.12584208
90	0x3daf9040	0.085724354
91	0x3df9ed5c	0.12203476
92	0x3e378ef4	0.17925626
93	0xbb9625ce	-0.0045821434
94	0xbdfd9b6b	-0.12383159
95	0x3dbfde29	0.093685456
96	0x3e5030b9	0.20331086
97	0x3dc65cf7	0.096857004
98	0x3e0383d0	0.12843251
99	0x3e0783e9	0.13233913
100	0xbcd347e9	-0.025791125
101	0x3d2f850b	0.04285149
102	0x3d561a25	0.052271027
103	0xbe192c59	-0.14958324
104	0xbd7defe7	-0.061996367
105	0xbdc1f742	-0.09470989
106	0xbc8cbf39	-0.017181026
107	0x3ceecd1c	0.029150538
108	0xbd84da98	-0.06487006
109	0xbe536d67	-0.20647202
110	0xbd565534	-0.05232735
111	0x3d4b904c	0.04969816
112	0x3cc397cc	0.023876093
113	0xbe0c71ea	-0.1371533
114	0xbe38a6e3	-0.18032412
115	0xbb3b210d	-0.0028553635
116	0x3c37aac1	0.0112101445
117	0xbde2e160	-0.11078143
118	0x3c7ba950	0.015360191
119	0xbd4cb071	-0.049972955
120	0xbd594f8d	-0.05305438
121	0x3d90f44f	0.07077848
122	0xbd99be67	-0.075070195
123	0xbd145276	-0.036211453
124	0xbe49c89d	-0.19705434
125	0x3e0e44e0	0.13893461
126	0x3e3357c2	0.17513946
127	0x3cfe6219	0.031052636
128	0x3c8f07fa	0.017459858
129	0x3d7031d1	0.05864126
130	0x3e37dcac	0.17955273
131	0x3dfe50b4	0.12417737
132	0x3ddea75e	0.108717665
133	0x3e0550a4	0.13019043
134	0x3d1c5631	0.038168136
135	0x3ccb176e	0.024791446
136	0x3e34fa0b	0.17673509
137	0x3e4777a5	0.19479235
138	0xbb9c4097	-0.004768442
139	0xbd01d885	-0.03170063
140	0x3d405acf	0.0469616
141	0x3de8932b	0.11356195
142	0x3e2d54db	0.16926901
143	0x3d47ba78	0.048761815
144	0x3d24d42e	0.040241413
145	0x3db16d5b	0.08663436
146	0x3da1b78e	0.078963384
147	0x3e0a8499	0.13527144
148	0xbcc776a4	-0.024348564
149	0xbda6c043	-0.0814214
150	0x3e831b8e	0.2560696
151	0x3e866384	0.262478
152	0x3f035d9a	0.513147
153	0x3ed3f31f	0.41396424
154	0x3e670628	0.22560942
155	0x3e62ba96	0.2214149
156	0x3eec9da4	0.4621402
157	0x3ee58d8b	0.4483455
158	0x3eafcc9c	0.34335792
159	0x3e3104a7	0.17286931
160	0xbdfedf7d	-0.12444971
161	0xbdaa67b1	-0.08320559
162	0xbe60180c	-0.21884173
163	0xbec81de8	-0.39085317
164	0xbe9f1af7	-0.3107526
165	0xbd8e24be	-0.06940602
166	0xbe9cb619	-0.3060768
167	0xbe2d81e1	-0.16944076
168	0xbebd5e52	-0.36986023
169	0xbe83a0ed	-0.25708714
170	0xbe1ce616	-0.15322146
171	0xbd811e88	-0.063046515
172	0xbc37363e	-0.011182366
173	0xbdeecc6f	-0.11660086
174	0xbe23745e	-0.1596236
175	0x3a607d19	0.0008563563
176	0x3e7676a3	0.24068694
177	0x3e8a6953	0.2703348
178	0x3db41998	0.08793944
179	0xbde00c1c	-0.1093981
180	0xbc235b52	-0.009970503
181	0x3cdc44e2	0.026888315
182	0xbcd8b80a	-0.026454944
183	0xbd1a70b0	-0.037705123
184	0xbdde6fd9	-0.10861177
185	0xbe86a70a	-0.26299316
186	0xbee60547	-0.449259
187	0xbeba2b04	-0.36360943
188	0xbed4e92e	-0.41584152
189	0xbe9c9c1d	-0.30587855
190	0xbe59dd2d	-0.21275778
191	0xbe54130b	-0.2071039
192	0xbe8e49cd	-0.2779068
193	0xbe4d6abd	-0.20060249
194	0x3d7471c3	0.059678804
195	0x3e30bd18	0.17259634
196	0x3db5a45d	0.088692404
197	0x3e85a2aa	0.26100665
198	0x3dd8e10c	0.10589799
199	0x3e4961f1	0.19666268
200	0x3d88b483	0.06675055
201	0xbcd010d5	-0.025398651
202	0x3dc43e10	0.0958215
203	0x3e510f9d	0.20416112
204	0xbb860f69	-0.0040911925
205	0x3d22a67a	0.039709546
206	0xbc48505a	-0.012226189
207	0x3e10ba52	0.14133576
208	0x3bcafba3	0.006194548
209	0xbe05a3f0	-0.13050818
210	0xbe74e6e9	-0.2391621
211	0xbe2c521c	-0.16828197
212	0xbe574c28	-0.21025145
213	0xbe8d30dc	-0.2757634
214	0xbd8fb14c	-0.070162386
215	0xbdcbe0c8	-0.09954983
216	0x3cbb3ce4	0.022856183
217	0xbdef56d3	-0.11686482
218	0x3d3762db	0.04477201
219	0x3e209093	0.1568015
220	0x3e980d33	0.2969757
221	0x3e96aef5	0.29430357
222	0x3e70b48d	0.23506375
223	0x3e9d317d	0.3070182
224	0x3eb1d45c	0.3473233
225	0xbe0af9a5	-0.13571794
226	0xbe857140	-0.26062965
227	0xbe6c8b2c	-0.23099965
228	0xbce2bb5b	-0.027677229
229	0xbde3d918	-0.11125392
230	0xbe27be7b	-0.16381256
231	0xbe28df33	-0.16491394
232	0xbe43c0e1	-0.19116546
233	0xbe05c04b	-0.13061635
234	0xbe1b4a4e	-0.15165064
235	0xbcc009fe	-0.023442265
236	0x3c9f4da1	0.019446196
237	0xbd370102	-0.044678695
238	0xbe4f024a	-0.20215717
239	0xbd9c66ae	-0.07636772
240	0xbcda65ce	-0.026659872
241	0x3d0ba5a7	0.034093525
242	0x3e44f791	0.19235064
243	0x3d0dea43	0.034647238
244	0x3d5de243	0.054170858
245	0x3e6c2a0b	0.23062913
246	0x3e1ce614	0.15322143
247	0x3ea45b7e	0.32101053
248	0x3e7cf803	0.24703984
249	0x3ebb7e5a	0.36619836
250	0x3c880ed1	0.016608628
251	0xbde6c10d	-0.1126729
252	0xbe32c4e6	-0.17457923
253	0xbdcaed88	-0.09908587
254	0xbb9b17ad	-0.004733047
255	0xbe3d9ea7	-0.18517552

conv1.bias f4 [6]
0	0x3ee8d477	0.45474598
1	0x3e76a3cb	0.2408592
2	0xbed02385	-0.406521
3	0xbe90d5f1	-0.28288224
4	0xbd75d0d9	-0.060013626
5	0x3e05b59f	0.13057564

conv2.weight f4 [16, 6, 5, 5]
0	0x3e1bf397	0.15229641
1	0xbd54ab51	-0.051921193
2	0xbdc88b51	-0.097921975
3	0xbe2636ef	-0.16231893
4	0xbe0ca154	-0.13733417
5	0x3dc2263d	0.094799496
6	0xbcb94f91	-0.022620948
7	0xbd76fa2e	-0.060297184
8	0xbde7f88e	-0.11326705
9	0xbe1f4324	-0.15552956
10	0x3dfe1582	0.12406446
11	0x3da41b8a	0.08013065
12	0xbcf4b45a	-0.029871155
13	0xbdeb619a	-0.114932254
14	0xbdf76d8d	-0.12081442
15	0x3e33e9e7	0.17569695
16	0x3c884284	0.01663328
17	0x3ced4a17	0.028965993
18	0xbd42990c	-0.047509238
19	0xbdbb282f	-0.09138524
20	0x3d5535b0	0.052053154
21	0x3c905e8b	0.017623207
22	0x3d422b6c	0.04740469
23	0xbc218cc2	-0.009860219
24	0xbdc92fbc	-0.09823558
25	0x3cad877e	0.021182772
26	0x3d03c474	0.032169774
27	0xbcc383e5	-0.023866603
28	0xbd84b66d	-0.064801075
29	0xbd81acf0	-0.06331813
30	0x3da34a27	0.07973128
31	0x3d3dfb3d	0.046382178
32	0xbd8774e5	-0.06614093
33	0xbe036747	-0.12832366
34	0xbd93fcd0	-0.072259545
35	0x3bb88d21	0.0056320583
36	0xbc72aefb	-0.014812226
37	0xbcd3c1fb	-0.025849333
38	0xbd80efda	-0.06295748
39	0xbd713c72	-0.058895536
40	0x3caac944	0.020847924
41	0xbd9c5517	-0.07633417
42	0x3c7d504b	0.015461038
43	0xbd6169d5	-0.05503257
44	0xbdb54162	-0.088503614
45	0x3db885da	0.09009905
46	0xbdb65199	-0.08902282
47	0x3cf96bdf	0.030446945
48	0xbcbd43ac	-0.023103558
49	0xbd80a3eb	-0.06281265
50	0x3c9d9419	0.019235658
51	0xbc7d8781	-0.015474201
52	0xbd9c50ce	-0.076326
53	0x3d2cf9d1	0.04223043
54	0x3bb994ab	0.0056634746
55	0x3d8d0f84	0.06887725
56	0xbd0febac	-0.035136864
57	0xbc455044	-0.012043063
58	0xbd589fc0	-0.052886724
59	0x3d717687	0.058950927
60	0x3d4e9879	0.050438378
61	0x3db5a48c	0.088692755
62	0x3bcbce57	0.006219666
63	0xbcbf941f	-0.02338606
64	0xbdf3fbbc	-0.11913249
65	0xbd2d4020	-0.042297482
66	0x3d810a5c	0.06300804
67	0x3bbde640	0.00579527
68	0xbd867875	-0.06565944
69	0x3c5d98dc	0.013525214
70	0xbd78111e	-0.0605632
71	0xbdea2db4	-0.114344984
72	0xbc66fb73	-0.014098036
73	0xbcce4d3d	-0.025183314
74	0xbdde0d16	-0.1084234
75	0xbdaffb65	-0.085928716
76	0xbc6d4d6d	-0.014483792
77	0xbd766422	-0.060154088
78	0xbd2881f3	-0.041139554
79	0xbd699312	-0.057025023
80	0xbc8860ce	-0.016647723
81	0x3d00fa2c	0.031488582
82	0xbc928dc7	-0.01788987
83	0xbd84177b	-0.06449791
84	0x3da78c13	0.08181014
85	0xbc8611b8	-0.01636587
86	0xbd03186e	-0.03200572
87	0x3c8b0ecb	0.016974827
88	0xbd0ecffc	-0.034866318
89	0xbd6b6ee4	-0.0574788
90	0x3b9c8fc9	0.0047778827
91	0xbd65521b	-0.055986505
92	0x3c8cc0fc	0.017181866
93	0xbcdf8e1b	-0.02728944
94	0xbd6d6bc0	-0.057964087
95	0x3d6d83b3	0.057986926
96	0xbdbd7996	-0.09251706
97	0x3d81681f	0.06318688
98	0x3d9be0fc	0.07611272
99	0x3d4d4913	0.050118517
100	0x3dc26c72	0.094933406
101	0x3cba8ad2	0.022771273
102	0x3d983e88	0.07433802
103	0x3d05b73f	0.03264546
104	0x3da530db	0.08065959
105	0xbb662c69	-0.0035121685
106	0x3c251433	0.010075617
107	0x3caf65b7	0.021410806
108	0x3dff7dfe	0.12475203
109	0xbe4254d1	-0.18977667
110	0x3d403477	0.046925034
111	0xbd27e919	-0.040993784
112	0xbdb7c0a9	-0.08972294
113	0x3e665d17	0.22496448
114	0xbe287c07	-0.16453563
115	0x3d9b6109	0.07586867
116	0xbcb9c122	-0.0226751
117	0xbe1f9941	-0.15585805
118	0x3e7dd91d	0.24789853
119	0xbc9a69e1	-0.018849315
120	0xbcfc8568	-0.030825332
121	0x3d08e65b	0.03342281
122	0xbd4ef791	-0.050529066
123	0xbca6422e	-0.020295229
124	0x3d8aefb3	0.06784
125	0xbdc38f5f	-0.0954883
126	0x3c342bf4	0.010996807
127	0xbe204e4a	-0.15654865
128	0xbe447d7e	-0.19188496
129	0x3d8b9bef	0.06816851
130	0xbdb6aad2	-0.089193
131	0xbdce025b	-0.10059043
132	0x3e3318a2	0.17489865
133	0xbe8732db	-0.26405987
134	0x3e069eda	0.13146535
135	0xbd4dcb75	-0.05024286
136	0xbd83aef8	-0.06429857
137	0x3eb7a6f7	0.35869572
138	0xbe4a6ff3	-0.19769268
139	0x3cd974a3	0.026544875
140	0x3cf5f84e	0.030025627
141	0xbe3117bf	-0.17294215
142	0x3eb8c3e5	0.36086956
143	0xbd781a10	-0.06057173
144	0x3cf2ac2c	0.029623114
145	0x3dd4eb16	0.103964016
146	0xbde4c20d	-0.11169825
147	0x3e225909	0.15854277
148	0x3dfafe5c	0.122555465
149	0x3d195490	0.03743416
150	0x3dfd6fcd	0.1237484
151	0x3da3182d	0.079635955
152	0x3dc618f4	0.09672728
153	0x3e000b96	0.1250442
154	0x3d6a0a10	0.057138503
155	0xbcd40b41	-0.025884273
156	0xb70b7ef4	-8.314604e-06
157	0x3d12ea39	0.035867903
158	0x3ccc4d4c	0.024939202
159	0xbd88a9d7	-0.066730194
160	0xb91a0c95	-0.00014691272
161	0xbcf35558	-0.029703781
162	0x3dbe2a7c	0.09285447
163	0x3d0c4979	0.034249756
164	0xbddb9fcd	-0.10723839
165	0xbe2a1cf9	-0.16612615
166	0x3d2e426d	0.042543817
167	0xbd0697e4	-0.032859698
168	0xbdb039ca	-0.086047724
169	0xbde39deb	-0.11114105
170	0xbddadf34	-0.10687104
171	0xbd90741a	-0.070533946
172	0xbad9d0db	-0.001661803
173	0xbc4e6c8c	-0.012599122
174	0xbd2e8ac4	-0.042612806
175	0xbd1c8e8e	-0.03822189
176	0x3bac917e	0.0052663675
177	0x3d11ed56	0.03562673
178	0xbdbae1b6	-0.09125082
179	0xbd3f050b	-0.04663567
180	0x3b45b60f	0.003016833
181	0x3d9a2cae	0.07528053
182	0xbd2eb610	-0.042654097
183	0xbd67a045	-0.05654933
184	0xbd3cc1b1	-0.046083156
185	0xbd50e4dd	-0.05099951
186	0x3c37accd	0.0112106325
187	0xbd0ba50f	-0.03409296
188	0xbc8cd7eb	-0.017192801
189	0xbd4f938a	-0.050677814
190	0xbd921c50	-0.071343064
191	0xbcd26e02	-0.025687221
192	0x3c98976a	0.018626887
193	0xbd5b6634	-0.053564265
194	0xbde51d34	-0.11187211
195	0xbd9a6f77	-0.075407915
196	0xbdd05ee2	-0.101743475
197	0xbcf32d98	-0.029684827
198	0xbd1f119f	-0.038835164
199	0xbdca37d6	-0.09873931
200	0x3dd26866	0.10273819
201	0x3b0b97cb	0.0021300192
202	0x3d82aeb4	0.06380978
203	0x3dba5867	0.09098893
204	0x3e8f0867	0.27936098
205	0xbcfe76ff	-0.031062601
206	0x3cb3cd37	0.02194844
207	0x3c9084e5	0.017641494
208	0x3e03d973	0.12875919
209	0x3dec4983	0.11537459
210	0x3db98686	0.090588614
211	0xbcb76c2b	-0.022390446
212	0x3c5927ca	0.013254115
213	0x3e543c06	0.20726022
214	0x3dff3150	0.124605775
215	0xbc94e468	-0.018175319
216	0x3e3bbac4	0.18332964
217	0x3e330ed8	0.17486131
218	0x3dc054a5	0.09391145
219	0xbc47cf9f	-0.012195497
220	0x3e08ef88	0.13372624
221	0x3e69452e	0.22780296
222	0x3e948a77	0.2901189
223	0x3e09d416	0.1345981
224	0xbdc211db	-0.09476062
225	0xbd941ca1	-0.07232023
226	0xbe05752e	-0.13032982
227	0xbd51976a	-0.05116979
228	0xbe42e1df	-0.19031475
229	0xbe22934e	-0.15876505
230	0xbda1bdb8	-0.07897514
231	0xbe80cd03	-0.25156412
232	0xbe595840	-0.21225071
233	0xbe6edc25	-0.23326166
234	0xbe0158f0	-0.12631583
235	0xbc2ccba2	-0.010546597
236	0xbe110448	-0.1416179
237	0xbe4d22f9	-0.20032872
238	0xbe01f273	-0.12690143
239	0xbc044fd7	-0.008075676
240	0xbda924b4	-0.08258954
241	0xbda1cefc	-0.07900807
242	0x3be17dee	0.006881467
243	0x3cd34d44	0.025793679
244	0xbc14281c	-0.009042766
245	0xbd454396	-0.048160158
246	0x3e000562	0.12502053
247	0x3e418be6	0.18901023
248	0x3e2e2ff4	0.1701048
249	0xbda6d2d7	-0.08145683
250	0x3ad2c6de	0.0016080996
251	0xbe101e80	-0.14074135
252	0xbdfbbadb	-0.12291499
253	0xbd289c36	-0.0411646
254	0xbe0a532f	-0.13508295
255	0x3d980340	0.07422495

conv2.bias f4 [16]
0	0x3dfb3474	0.12265864
1	0xbf1fcf4d	-0.6242569
2	0x3b35f5cf	0.0027764922
3	0xbca3cdac	-0.019995533
4	0xbf00c14e	-0.5029496
5	0x3e676dd7	0.22600494
6	0xbd9b2cd1	-0.075769074
7	0x3cef3e90	0.029204637
8	0xbe4be1fd	-0.19910426
9	0x3dfd4f8a	0.123686865
10	0x3f25addc	0.64718413
11	0xbd434e33	-0.047682
12	0x3e3a27fc	0.18179315
13	0x3e9bc8cb	0.3042663
14	0x3e14f8b1	0.14547993
15	0x3e2baaa1	0.16764309

fc1.weight f4 [120, 400]
0	0xbce04eaa	-0.02738126
1	0xbbfeb858	-0.0077734403
2	0xbc35be3e	-0.011092721
3	0x3d23f845	0.04003169
4	0x3c906c94	0.0176299
5	0x3d082e5b	0.033247333
6	0xbd401a39	-0.046900008
7	0xbd36248e	-0.044468455
8	0x3c6ce74f	0.014459445
9	0x3cc67d60	0.024229705
10	0xbd47dab6	-0.048792563
11	0x3d15ab4f	0.036540326
12	0x3bab6709	0.0052307886
13	0xbd119758	-0.035544723
14	0x3b8c752e	0.00428643
15	0xbc033221	-0.008007557
16	0xbce507e7	-0.02795787
17	0x3c0a49ba	0.008440429
18	0xbcc76692	-0.024340902
19	0x3c4abe6c	0.012374502
20	0xbd0230c0	-0.031784773
21	0xbc406e22	-0.011745008
22	0x3ca236f6	0.019801598
23	0x3ce45d62	0.02787656
24	0xbb6e9e3a	-0.0036410228
25	0x3d2fc972	0.042916723
26	0xbbc21377	-0.0059227305
27	0x3affac99	0.0019506394
28	0x3c7f6a39	0.01558929
29	0x3d36d1b5	0.044633586
30	0xbce6432a	-0.028108198
31	0xbca23feb	-0.01980587
32	0x3cc83da4	0.024443455
33	0xbd31dfda	-0.043426372
34	0xbcfbd92b	-0.030743202
35	0x3d1b33dd	0.037891258
36	0xbccb0927	-0.024784638
37	0xbc8a1592	-0.016855989
38	0xbc788db3	-0.0151705025
39	0xbcb91355	-0.022592226
40	0x3c416a4f	0.011805131
41	0x3c79a084	0.015236024
42	0xbc11bde2	-0.008895369
43	0xbd021651	-0.031759564
44	0xbc499f8f	-0.012306108
45	0xbd3d7855	-0.046257336
46	0xbb744444	-0.0037272135
47	0x3ca5f0f1	0.020256491
48	0x38cd05bb	9.776229e-05
49	0x3d1c5bb8	0.038173407
50	0xbcf2fffb	-0.029663077
51	0xbcbb8e5c	-0.02289503
52	0x3d0447ff	0.032295223
53	0xbd23c3aa	-0.03998152
54	0xbd285e86	-0.04110577
55	0x3d1568b5	0.03647681
56	0xbc40f715	-0.011777659
57	0xbc65b935	-0.014021208
58	0x3d379651	0.044821087
59	0xbcc3e42a	-0.023912508
60	0xbc56abca	-0.013102481
61	0xbd13dc86	-0.03609898
62	0x3d2e0f4b	0.042495053
63	0xbd24f370	-0.040271223
64	0xbd38f33c	-0.04515384
65	0xbcb7a342	-0.022416715
66	0xbcf08d2e	-0.029364195
67	0xbc9daca2	-0.019247357
68	0x3bb48b45	0.0055097663
69	0xbc58cb56	-0.013232073
70	0xbc800e88	-0.015631929
71	0xbd0d3de3	-0.034482848
72	0x3ce23dca	0.027617354
73	0x3c3b7b3f	0.011442958
74	0xbcf73252	-0.030175362
75	0xbd3434c4	-0.043995634
76	0xbd195088	-0.037430316
77	0xbcddf22f	-0.027093021
78	0x3d0187bf	0.0316236
79	0x3c75cb9a	0.015002156
80	0x3c4e1187	0.012577421
81	0x3986fbc7	0.0002574606
82	0x3d092638	0.033483714
83	0xbd33fe65	-0.04394378
84	0x3c2f2ca7	0.010691798
85	0x3c3a8a9b	0.011385585
86	0xbc85de2e	-0.016341295
87	0x3d103e16	0.03521546
88	0xbd27ca17	-0.040964212
89	0xbcd87a95	-0.02642564
90	0x3c8947ab	0.016757807
91	0x3c848c04	0.016180046
92	0x3ce9ee51	0.02855602
93	0x3c3e30d4	0.011608321
94	0x3b91fd3f	0.004455238
95	0xbc0a7831	-0.008451507
96	0xbba43c00	-0.0050120354
97	0x3bd256e4	0.0064190496
98	0x3d41efc8	0.047347814
99	0xbca7df5e	-0.020492252
100	0x3acd7e09	0.001567782
101	0x3cabc302	0.02096701
102	0x3d0a2c0a	0.033733405
103	0x3b6b5321	0.0035907703
104	0xbd2435d8	-0.040090412
105	0xbce4dd54	-0.027937569
106	0xbc1c9e11	-0.00955917
107	0x3d3680b9	0.044556353
108	0xbd0f1abd	-0.03493761
109	0x3ce3a6a6	0.027789425
110	0x3d13dd2f	0.03609961
111	0x3ce3be00	0.02780056
112	0xbd27268c	-0.040808246
113	0xbd1317ba	-0.0359113
114	0xbd2a8f0c	-0.041640326
115	0xbca71d4f	-0.020399718
116	0x3d1373a8	0.03599897
117	0x3cd4fe5d	0.026000196
118	0x3d440953	0.047860455
119	0xbbe5fecd	-0.0070189
120	0xbcc7fad8	-0.024411604
121	0xbb0b049d	-0.0021212467
122	0x3c365d40	0.011130631
123	0x3c321b92	0.010870831
124	0x3c1f0874	0.009706605
125	0xbd3018ff	-0.042992588
126	0xbc72bb07	-0.014815099
127	0x3d1ece2a	0.038770832
128	0xbc3702f4	-0.011170138
129	0x3cf49192	0.02985457
130	0xbd1eab38	-0.038737506
131	0x3bf5307e	0.0074825874
132	0xb69d1b55	-4.6821465e-06
133	0xbd4a2c74	-0.0493588
134	0x3d2fae3c	0.042890772
135	0xbd1e6ef5	-0.038680036
136	0xbd1b757a	-0.03795383
137	0x3d079158	0.033097595
138	0x3cd17ebe	0.02557313
139	0x3c1f037a	0.009705419
140	0x3d24ed26	0.040265225
141	0xbcd5499e	-0.02603608
142	0x3d0debc5	0.034648675
143	0x3b7fd22f	0.0039035191
144	0xbd3c9d3a	-0.04604838
145	0xbc45a00b	-0.012062083
146	0x3c9f0532	0.019411657
147	0xbb9ad66d	-0.0047252686
148	0x3d2f622d	0.042818237
149	0x3d462ffd	0.04838561
150	0x3c2a444d	0.010392261
151	0xbd3e0e7a	-0.046400525
152	0x3b6589a7	0.0035024674
153	0x3d469ccb	0.048489373
154	0x3d17d175	0.03706499
155	0xbc90117f	-0.017586468
156	0x3a8ad555	0.0010592142
157	0xbc5b5b3c	-0.013388451
158	0xbd383303	-0.044970524
159	0x3c61626b	0.013756375
160	0x3cd44287	0.025910629
161	0xbc2145fa	-0.009843344
162	0xbc5d7bb5	-0.013518264
163	0x3b361e00	0.0027788877
164	0xbcf2d708	-0.02964355
165	0x3d125229	0.035722885
166	0xbb439843	-0.0029845394
167	0x3cbdd45a	0.023172546
168	0x3ce2757e	0.027643915
169	0xbd06cb16	-0.03290852
170	0xbb1728b1	-0.0023065025
171	0x3d0bb4fa	0.03410814
172	0x3c8e2f32	0.017356489
173	0xbd4fc517	-0.05072507
174	0xbcf57e38	-0.029967412
175	0x3c2837af	0.010267182
176	0x3d2d4a1c	0.042307004
177	0xbc4e46fe	-0.012590168
178	0xbd41267c	-0.047155842
179	0xbd06adf5	-0.032880742
180	0x3d49deb3	0.04928465
181	0xbc960f3d	-0.018317813
182	0x3d303bb7	0.0430257
183	0x3d085ba3	0.033290517
184	0xbcac76c2	-0.021052722
185	0xbc61b926	-0.013777053
186	0x3ba0c3f5	0.0049061724
187	0x3d401616	0.046896063
188	0x3cd92d91	0.026510986
189	0x3aab0fa7	0.0013050929
190	0xbc060a72	-0.008181201
191	0x3aaef139	0.0013347036
192	0x3c25825a	0.010101879
193	0xbca0f1be	-0.019646522
194	0xbc8e014c	-0.017334603
195	0xbcc54292	-0.024079595
196	0x3cb593c2	0.022165183
197	0x3d0fa777	0.035071816
198	0xbcf7ebc1	-0.030263783
199	0x3d29b584	0.041432872
200	0xbd04e5f0	-0.032445848
201	0xbcb6ad64	-0.022299476
202	0x3bd3f939	0.0064689186
203	0xbbea3911	-0.007147916
204	0xbd3ddf0a	-0.046355285
205	0xbd441f85	-0.047881622
206	0xbb7b52b0	-0.0038348846
207	0xbc1a70dc	-0.009426322
208	0x3cd0383a	0.025417436
209	0x3d463e84	0.048399463
210	0x3b84388e	0.004035062
211	0x3cd58d28	0.026068285
212	0xbd0039d1	-0.031305138
213	0x3d14889b	0.03626309
214	0x3c8ce74c	0.017200135
215	0xbd110647	-0.035406377
216	0x3d496310	0.04916674
217	0xbc6b2e5d	-0.014354316
218	0xbcc80481	-0.02441621
219	0x3cb895c6	0.022532355
220	0xbc5e937e	-0.01358497
221	0xbb94d9aa	-0.004542549
222	0x3c8e3253	0.01735798
223	0xbcbd923f	-0.023141025
224	0xbba7d5d3	-0.0051219254
225	0xbccf68da	-0.025318552
226	0xbbc3d73e	-0.0059765866
227	0xbd1c3d94	-0.038144663
228	0x3ced1016	0.028938334
229	0x3d3dc983	0.046334755
230	0xbccbff4e	-0.024902012
231	0xbc1b4bc6	-0.009478515
232	0xbd40e235	-0.047090728
233	0x3cd6a369	0.026200967
234	0x3bb57e0f	0.005538709
235	0x3d390ea7	0.04517999
236	0x3d3c2265	0.04593124
237	0xbd470f0c	-0.048598334
238	0xbc550891	-0.013002531
239	0xbd309e4f	-0.043119725
240	0xbd148be6	-0.03626623
241	0xbd3b512e	-0.045731716
242	0xbd2cef77	-0.04222056
243	0x3cf5f209	0.030022638
244	0xbd012904	-0.031533256
245	0x3c9820a7	0.018570257
246	0xbd43455d	-0.04767357
247	0x3c5103bd	0.012757239
248	0x3cc639a8	0.024197415
249	0x3b70000b	0.003662112
250	0xbc00bcca	-0.007857511
251	0xbcc03cf0	-0.023466557
252	0xbd3886de	-0.045050494
253	0x3cc25001	0.02371979
254	0xbd29ee6a	-0.041487135
255	0xbc8560ac	-0.016281448

fc1.bias f4 [120]
0	0xbca68413	-0.02032665
1	0xbd64e963	-0.055886637
2	0x3d3bf573	0.045888375
3	0x3c373f90	0.011184588
4	0xbde19c41	-0.11016131
5	0xbd6345a4	-0.055486336
6	0xbd3c172d	-0.04592054
7	0xbb02502e	-0.0019884217
8	0x3c227311	0.009915129
9	0x3e104f79	0.14092816
10	0xbbb03967	-0.0053779366
11	0x3d31d88f	0.043419417
12	0xbdfce882	-0.12349035
13	0x3d31fa85	0.043451805
14	0x3c752db0	0.014964506
15	0xbc9a4271	-0.01883051
16	0xbd4ebd7a	-0.050473668
17	0x3da29ab2	0.07939662
18	0xbcd7fad6	-0.026364725
19	0x3d32181e	0.04348003
20	0x3d538131	0.05163688
21	0x3cd7bdcd	0.026335621
22	0xbd926aa0	-0.07149243
23	0xbb942bfa	-0.004521844
24	0xbccb4da6	-0.0248173
25	0xbd20b5c1	-0.039235834
26	0x3d720216	0.05908402
27	0xbd0979bd	-0.033563364
28	0x3da915fb	0.082561456
29	0x3dab3410	0.083595395
30	0x3d9ffdf1	0.07812107
31	0x3d1e4f8d	0.038650084
32	0xbbe0b872	-0.006857925
33	0x3d5eb3e0	0.05437076
34	0xbcd18583	-0.025576359
35	0xbd9072de	-0.07053159
36	0x3d93a422	0.0720904
37	0xbe09378a	-0.13400093
38	0x3d817804	0.06321719
39	0x3ddd1658	0.10795277
40	0xbd155567	-0.0364584
41	0x3e03f9de	0.12888286
42	0x3d1b4c11	0.03791434
43	0xbd1afd05	-0.037838954
44	0x3de56592	0.112010136
45	0xbd9d7c08	-0.07689673
46	0xbc7f6a2e	-0.01558928
47	0xbd62b3db	-0.055347305
48	0x3d22cb84	0.03974487
49	0x3dfffbce	0.124992
50	0xbad2ef41	-0.0016093032
51	0xbd03ebe5	-0.03220739
52	0xbd06ded7	-0.03292736
53	0xbd8a6236	-0.067570135
54	0xb7812146	-1.5393493e-05
55	0x3da0840d	0.07837687
56	0x3dd10dbb	0.10207697
57	0xbdac6950	-0.08418524
58	0x3d2e3a3a	0.042535998
59	0x3e36cd20	0.17851686
60	0x3c9e53f8	0.019327149
61	0xbc8033fa	-0.015649784
62	0xbd31cd7d	-0.04340886
63	0x3bc945d6	0.0061423583
64	0x3bec4f76	0.007211621
65	0x3e1f3e12	0.15551022
66	0xbcc04aee	-0.02347323
67	0xbce3bf39	-0.027801143
68	0xbd350d6a	-0.044202246
69	0x3ccac23b	0.02475082
70	0x3de12b06	0.10994534
71	0xbd587fb3	-0.05285616
72	0x3dc602f1	0.0966853
73	0xbd532436	-0.051548205
74	0xbc4a79b9	-0.0123581225
75	0xbc7bd9f6	-0.01537179
76	0xbc97791f	-0.018490372
77	0xbd8a78cd	-0.06761322
78	0x3d18e331	0.03732604
79	0xbc631ac1	-0.013861359
80	0xbce2a754	-0.027667679
81	0x3a2aa6ab	0.0006509821
82	0xbcccbe5b	-0.024993112
83	0x3db3ca7b	0.087788545
84	0x3df38459	0.11890478
85	0x3c9a260b	0.018816968
86	0xbd879925	-0.06621007
87	0x3c98446d	0.018587315
88	0xbc315f97	-0.010826013
89	0x3ca452f2	0.020059083
90	0x3e0154ca	0.1263
91	0xbc026b6a	-0.00796018
92	0x3dcd75d7	0.10032242
93	0x3d5e5239	0.054277632
94	0xbd24a18e	-0.040193133
95	0xbd0fbd14	-0.03509243
96	0x3d67ac4d	0.056560803
97	0xbc124f66	-0.008930063
98	0x3da1113f	0.078646176
99	0xbd509a9f	-0.05092871
100	0xbdb58169	-0.08862574
101	0xbb9e7373	-0.00483554
102	0x3d926c6d	0.07149587
103	0xbdadd018	-0.08486956
104	0xbd531c13	-0.051540446
105	0xbcbe8fe0	-0.023261964
106	0x3dde4637	0.10853236
107	0x3dd2133d	0.10257576
108	0x3d0b909b	0.034073453
109	0x3d6e0b3c	0.058116183
110	0x3d308994	0.043099955
111	0xbbff2da4	-0.007787423
112	0x3c351cc8	0.011054225
113	0xbc2db265	-0.010601615
114	0xbd2a90c4	-0.041641966
115	0xbbd2974a	-0.0064267265
116	0xbd5d2007	-0.05398562
117	0x3dc8dc61	0.09807659
118	0x3d0c4d31	0.034253303
119	0xbc27d66e	-0.010243995

fc2.weight f4 [84, 120]
0	0x3d21e8e3	0.03952874
1	0x3c1d0cda	0.009585584
2	0xbd4613c1	-0.048358683
3	0x3c866a50	0.016408116
4	0x3d17cd5f	0.03706109
5	0x3bfd9d4a	0.0077396976
6	0x3cf6b6dc	0.030116491
7	0x3cc400ad	0.023926103
8	0x3d517326	0.051135205
9	0xbd399b27	-0.04531398
10	0x3d9fd361	0.07803989
11	0x3d4fa867	0.05069771
12	0xbc8ab3ff	-0.016931532
13	0x3d7175e6	0.058950327
14	0xbd2677cc	-0.04064159
15	0xbd93becb	-0.07214125
16	0x3ce0333f	0.027368186
17	0x3be2797f	0.006911456
18	0xbce331da	-0.027733732
19	0x3c64e34e	0.013970209
20	0xbdb3f63d	-0.087872006
21	0xbccff50d	-0.025385404
22	0xbd849a87	-0.06474786
23	0xbde01051	-0.10940612
24	0x3da69208	0.08133322
25	0x3cbc44a8	0.022981957
26	0xbd91b235	-0.071140684
27	0xbc327281	-0.010891558
28	0x3cf4019c	0.029785924
29	0x3d95011b	0.072756015
30	0xbcd15144	-0.025551446
31	0xbdb7cc89	-0.08974559
32	0x3c77eef3	0.0151326535
33	0xbc45170f	-0.012029423
34	0xbd905215	-0.07046906
35	0xbc1cf01c	-0.009578731
36	0x3d9121fb	0.070865594
37	0x3da165de	0.07880758
38	0xbdc95d34	-0.0983223
39	0xbd2428b9	-0.0400779
40	0x3d367665	0.044546504
41	0xbc651ff9	-0.013984674
42	0x3d50c588	0.05096963
43	0x3d99e428	0.075142205
44	0x3d194e69	0.037428293
45	0x3db04a0c	0.08607873
46	0x3d7d9d26	0.061917447
47	0xbdf897c6	-0.121383235
48	0xbda6a608	-0.08137137
49	0xbcb419fa	-0.021985043
50	0x3d216f4b	0.039412778
51	0x3da3e0bb	0.08001848
52	0xbd903988	-0.07042223
53	0xbd81c228	-0.063358605
54	0xbd93f54a	-0.072245196
55	0x3c83fb02	0.0161109
56	0x3cfbed92	0.03075293
57	0x3defd9a4	0.117114335
58	0xbd8c61dc	-0.06854603
59	0x3d60639e	0.054782502
60	0xbdd1aa75	-0.1023759
61	0x3d4c837e	0.04993009
62	0x3da255ef	0.07926547
63	0x3c91b05a	0.017784286
64	0xbc9127d7	-0.017719192
65	0x3d8850f0	0.066560626
66	0x3d308e99	0.04310474
67	0xbd9d1fd6	-0.07672088
68	0x3d882456	0.066475555
69	0x3ddf01dd	0.10889027
70	0xbdee6554	-0.116404206
71	0x39bede2f	0.00036405164
72	0xbca0379e	-0.01955777
73	0x3d80fa13	0.06297698
74	0x3cfe74a7	0.031061484
75	0xbdad0229	-0.08447678
76	0x3d8a2d24	0.06746891
77	0x3dc28ade	0.09499143
78	0x3da96267	0.08270722
79	0x3d332267	0.04373398
80	0x3cebccbb	0.028784147
81	0x3c8224e2	0.015886728
82	0x3d81ab82	0.06331541
83	0xbc6a9fc0	-0.014320314
84	0xbd415448	-0.047199517
85	0xbc03ab6b	-0.008036475
86	0xbd1da59c	-0.038488016
87	0x3d84e9a9	0.0648988
88	0x3d2a9d3c	0.041653857
89	0xbd16880b	-0.036750834
90	0xbdb5fd7c	-0.08886239
91	0x3d41aa3c	0.04728149
92	0x3dc337d0	0.0953213
93	0x3d8dbbf4	0.06920615
94	0x3d736ad5	0.059428055
95	0x3d84a520	0.064768076
96	0xbd31d717	-0.043418016
97	0xbd4af4bb	-0.0495498
98	0xbdf68be7	-0.12038403
99	0xbcb68c45	-0.022283683
100	0x3cdfbb91	0.027311118
101	0x3da9a25f	0.08282923
102	0xbcad098a	-0.021122713
103	0x3d9d630c	0.07684907
104	0xbcdf051b	-0.027224114
105	0xbd6f732c	-0.058459446
106	0x3d7ad682	0.061239727
107	0xbb6bbb05	-0.0035969627
108	0x3ac3bb4f	0.0014933142
109	0xbcb6e189	-0.02232434
110	0x3d557d93	0.05212171
111	0xbd7d60b7	-0.061859813
112	0x3d97020c	0.07373437
113	0x3ca3effb	0.020011893
114	0x3d96faf8	0.07372087
115	0xbdacd7c0	-0.084395885
116	0xbcb75a33	-0.022381878
117	0x3d0b55ee	0.034017496
118	0x3c0574ef	0.008145555
119	0xbdb961d9	-0.09051866
120	0xb9809672	-0.00024526153
121	0x3d224fd5	0.039626915
122	0xbdb28bcb	-0.0871807
123	0xbd59369c	-0.053030595
124	0x3db59dc3	0.08867981
125	0xbd336fd0	-0.043807805
126	0x3d170e7f	0.03687906
127	0x3c35e672	0.011102306
128	0xbbbc8e5e	-0.005754276
129	0xbdccc6f6	-0.09998886
130	0xbd6a3409	-0.05717853
131	0xbd22beba	-0.039732672
132	0x3d8ac3aa	0.06775601
133	0x3bc9d3d1	0.0061592837
134	0xbd0ecda9	-0.0348641
135	0xbc3749b2	-0.011187004
136	0xbd3574a6	-0.044300698
137	0xbcb12358	-0.021623299
138	0x3cb02790	0.02150324
139	0xbd98a872	-0.074540034
140	0x3d813501	0.06308938
141	0x3d660be4	0.056163684
142	0x3dc58091	0.09643663
143	0x3a8d054f	0.0010759028
144	0xbd1b6a57	-0.03794321
145	0xbcd9cc47	-0.026586665
146	0xbdde351c	-0.108499736
147	0xbd883f7a	-0.06652732
148	0xbd12b9e1	-0.0358218
149	0x3bc882c0	0.0061191022
150	0x3ba147f3	0.004921907
151	0xbbe0694e	-0.006848491
152	0xbcc5dcd0	-0.024153143
153	0xbdac6aa6	-0.08418779
154	0x3def9792	0.116988316
155	0x3d1f0a8a	0.03882841
156	0x3dbdc85e	0.09266733
157	0x3e43c793	0.191191
158	0x3da32a8c	0.079670995
159	0x3d8ab084	0.06771949
160	0xbcbda335	-0.023149112
161	0xbcf25ace	-0.029584315
162	0xbca44f3f	-0.020057319
163	0xbe00d5d3	-0.12581567
164	0x3d6c92e7	0.057757284
165	0x3d8190eb	0.06326469
166	0xbbde51ed	-0.0067846687
167	0xbd6ab791	-0.05730397
168	0x3d53d323	0.051715028
169	0xbd1d150c	-0.03835015
170	0x3d2fabdc	0.042888507
171	0x3e119bc8	0.14219582
172	0x3dd6c4cb	0.10486754
173	0xbdc50543	-0.09620144
174	0xbc50c045	-0.012741153
175	0xbd577842	-0.05260492
176	0x3d1b65af	0.03793877
177	0xbe09cd19	-0.13457145
178	0x3e069009	0.13140883
179	0x3d476c0f	0.048687037
180	0xbdd0196a	-0.10161097
181	0xbd3cb89e	-0.046074502
182	0x3d236a30	0.03989619
183	0x3dadc443	0.084846996
184	0xbd30103e	-0.04298424
185	0x3c76db6d	0.015066964
186	0xbd465625	-0.048421998
187	0x3cb4ca9f	0.022069274
188	0x3d95ae64	0.07308653
189	0xbd6e06ec	-0.05811207
190	0xbdc3928b	-0.09549435
191	0xbb8e3cfa	-0.004340765
192	0xbe000bef	-0.12504552
193	0xbd13f56e	-0.036122732
194	0x3d346d24	0.044049397
195	0x3c824651	0.01590267
196	0xbc881b07	-0.01661445
197	0x3d20edf4	0.03928943
198	0xbded21d0	-0.11578715
199	0x3e0f5288	0.13996327
200	0xbd8e27c9	-0.06941182
201	0xbc3e45af	-0.011613294
202	0xbcdbf6b9	-0.026851045
203	0xbd5c5bbc	-0.053798422
204	0xbdbc8307	-0.09204679
205	0xbd802999	-0.06257934
206	0x3cfdad49	0.030966418
207	0xbc751bb2	-0.014960216
208	0xbd1fed87	-0.039044883
209	0x3ba4f8e9	0.005034555
210	0xbdb3e80f	-0.08784496
211	0x3ba1be6b	0.0049360297
212	0xbdb1d241	-0.08682681
213	0xbd039372	-0.032123037
214	0x3d8c9888	0.068650305
215	0xbc3488f8	-0.011018984
216	0x3dbd0d2b	0.09231027
217	0x3d864f0a	0.06558044
218	0xbc1c0e38	-0.009524874
219	0x3d98a6ca	0.074536875
220	0x3cbaf7fd	0.022823328
221	0x3c5a4ab9	0.013323479
222	0xbc406945	-0.011743848
223	0xbcb95314	-0.022622623
224	0x3d4b1a99	0.049585912
225	0xbbfe26c9	-0.0077560884
226	0xbce56608	-0.028002754
227	0xbd9a4561	-0.07532764
228	0x3d749bb7	0.059718814
229	0x3bc52b88	0.006017152
230	0xbcbb0e21	-0.022833886
231	0xbd96a5e1	-0.07355858
232	0xbd1d13c3	-0.038348924
233	0x3bbf04ac	0.0058294144
234	0x3bc63d7a	0.006049809
235	0xbdb299b4	-0.08720723
236	0xbd93281c	-0.07185385
237	0x3d0fee67	0.035139468
238	0xbd5bb800	-0.053642273
239	0xbd93db42	-0.072195545
240	0xbcde802b	-0.027160725
241	0xbdc11400	-0.09427643
242	0x3dd7a43b	0.10529371
243	0xbc1dc839	-0.009630256
244	0x3d94115d	0.07229874
245	0xbda60cb8	-0.08107895
246	0x3d6ffed6	0.05859264
247	0xbd281c31	-0.04104251
248	0xbd2f6afe	-0.042826645
249	0x3d4f142c	0.050556347
250	0xbd866dcd	-0.065639116
251	0x3da069b4	0.07832661
252	0xbd63eb46	-0.055644296
253	0x3cddb868	0.02706547
254	0xbc0e5e6f	-0.008689507
255	0xbd95396d	-0.07286344

fc2.bias f4 [84]
0	0x3d58f59a	0.0529686
1	0x3c23abf6	0.009989729
2	0x3d9318ac	0.0718244
3	0xbc58bf9e	-0.013229279
4	0xbdc36a01	-0.09541703
5	0xbccfe3e7	-0.025377227
6	0xbda1b28c	-0.07895383
7	0xbda39d6b	-0.079890095
8	0x3d980739	0.074232526
9	0x3e9d31cd	0.30702057
10	0x3d20c2a5	0.039248127
11	0x3dc77978	0.09739965
12	0x3e41d47b	0.18928711
13	0x3cca2e99	0.024680423
14	0xbd04efa2	-0.032455094
15	0x3e359b81	0.17735101
16	0xbcbbc9c2	-0.022923354
17	0xbdab0545	-0.083506145
18	0xbdcdfa01	-0.1005745
19	0x3e4aae8d	0.19793148
20	0x3d60a337	0.054843154
21	0xbce1ee5b	-0.027579477
22	0x3e6c004d	0.2304699
23	0x3d28e447	0.041233327
24	0xbd60513a	-0.054764964
25	0xbdaa425a	-0.08313437
26	0x3e98d55a	0.29850274
27	0x3db60794	0.08888164
28	0x3e063fd3	0.13110285
29	0xbd68b4f0	-0.05681318
30	0x3bb6a6f3	0.005574101
31	0xbc2c9aaa	-0.010534922
32	0xbde08c53	-0.10964265
33	0x3e3fbc69	0.18724217
34	0xbe6bd977	-0.23032175
35	0xbdeea6de	-0.11652921
36	0xbcaaf93f	-0.020870803
37	0xbd7dc3ec	-0.061954424
38	0xbd7eafb5	-0.062179286
39	0x3d6c48e9	0.05768672
40	0x3d7782b5	0.060427386
41	0xbd28961c	-0.04115878
42	0x3e46e9e9	0.19425167
43	0xbe2a590d	-0.16635533
44	0x3df4c17d	0.119509675
45	0x3dd17f50	0.10229361
46	0xbddaa7fd	-0.106765725
47	0x3d8ab1f6	0.067722246
48	0x3d010d48	0.031506807
49	0xbdbee882	-0.09321691
50	0x3e1c9a30	0.15293193
51	0x3e0f2383	0.1397839
52	0xbd93f9b5	-0.07225362
53	0xbd439c4a	-0.04775647
54	0xbd8dfe87	-0.06933313
55	0x3ca539f4	0.020169236
56	0x3e94e8dc	0.29083908
57	0xbd73e5a1	-0.059545163
58	0x3d38eb32	0.045146175
59	0x3d00e7bf	0.03147101
60	0x3d1a1c2a	0.037624516
61	0xbdb61202	-0.088901535
62	0x3e3d2c43	0.18473916
63	0xbdca4ebf	-0.09878301
64	0x3e1b3031	0.15155102
65	0xbd4c2ae1	-0.04984558
66	0x3e185636	0.14876637
67	0xbd3aa57e	-0.045567982
68	0xbcd80de6	-0.026373815
69	0x3e53f476	0.20698723
70	0x3d6083c4	0.05481316
71	0x3d83193f	0.064013
72	0x3e0b33ee	0.13594028
73	0xbdcbcb26	-0.09950857
74	0x3a7ca41d	0.0009637492
75	0xbc80c2df	-0.015717922
76	0x3ddab916	0.106798336
77	0xbdef2310	-0.116766095
78	0x3cf24894	0.029575624
79	0x3e10c6e7	0.14138375
80	0x3d00e494	0.03146799
81	0xbdc3be36	-0.09557764
82	0x3c85e08f	0.01634243
83	0xbc76f6ae	-0.015073461

fc3.weight f4 [10, 84]
0	0x3e34ef58	0.17669427
1	0x3b6a1294	0.003571664
2	0xbd676fa7	-0.056502964
3	0x3e5db28f	0.21650146
4	0x3d9643e5	0.073371686
5	0xbcb7ed91	-0.022452148
6	0x3dace5fa	0.08442302
7	0xbd9d78f5	-0.07689086
8	0xbe96a0d8	-0.2941959
9	0x3e51a908	0.20474637
10	0xbd1451d3	-0.036210846
11	0xbdcbc1e5	-0.09949092
12	0x3b4244eb	0.002964313
13	0xbe78609e	-0.24255607
14	0xbda06e26	-0.07833509
15	0xbde804e6	-0.11329059
16	0xbe1b6ffa	-0.15179434
17	0x3d9633a4	0.073340684
18	0xbd331d84	-0.04372932
19	0xbe749b49	-0.23887362
20	0x3df9d481	0.12198735
21	0x3cd1c9f5	0.025608996
22	0x3e0e8fe2	0.13922074
23	0x3c6f1eef	0.0145947775
24	0xbda4af1b	-0.08041211
25	0x3c45cc49	0.012072631
26	0x3e7a394c	0.2443592
27	0xbd055622	-0.032552846
28	0x3d217742	0.039420374
29	0x3cdb3342	0.02675784
30	0xbd6ae673	-0.05734868
31	0x3c4fedfb	0.012691016
32	0x3d7fd5e1	0.06245983
33	0xbdfbd400	-0.12296295
34	0x3e5edef3	0.21764736
35	0x3df75617	0.12076967
36	0xbdd179ad	-0.10228286
37	0x3d4eaa3d	0.05045532
38	0x3dc34053	0.09533753
39	0xbd872851	-0.065994866
40	0x3e017ace	0.12644503
41	0xbd4d6b28	-0.05015102
42	0x3da91ab3	0.082570456
43	0xbd528612	-0.05139739
44	0xbd9a21ce	-0.07525979
45	0xbe46188a	-0.19345298
46	0x3d6dbc30	0.058040798
47	0x3cb949f8	0.022618279
48	0x3c73a104	0.014869932
49	0x3d15ac6d	0.03654139
50	0xbda5bc90	-0.08092606
51	0xbe3ed9de	-0.18637797
52	0xbd8331b9	-0.06405968
53	0x3deb6343	0.11493542
54	0x3e14ce91	0.14531924
55	0x3d17e092	0.0370794
56	0x3cce074d	0.025149966
57	0x3dbbf319	0.091772266
58	0xbde2cd9b	-0.110743724
59	0xbd27ba23	-0.040949
60	0xbd2f5839	-0.042808745
61	0x3d019102	0.03163243
62	0x3e1fbfe3	0.15600543
63	0x3dd4a77e	0.10383509
64	0x3cb14276	0.021638136
65	0xbd741a88	-0.059595615
66	0x3e5b1ecd	0.21398468
67	0x3d2059b5	0.03914805
68	0x3d60ccba	0.054882742
69	0x3ea4a374	0.32155955
70	0xbcaf4506	-0.021395218
71	0x3e9b3f6a	0.3032182
72	0x3dfb9f79	0.12286276
73	0xbd9d6d9d	-0.07686923
74	0x3d998e45	0.07497839
75	0xbd513709	-0.051077876
76	0xbe03ad5d	-0.12859102
77	0xbe629237	-0.22126089
78	0xbe204d05	-0.1565438
79	0x3e57498e	0.21024153
80	0xbbfd6a79	-0.00773364
81	0x3d003d08	0.031308204
82	0xbd29de50	-0.04147178
83	0xbd1bebfe	-0.038066857
84	0xbdc33294	-0.095311314
85	0x3ea1f8f8	0.3163526
86	0xbda386ea	-0.07984717
87	0x3d60f71e	0.05492317
88	0x3e0bbe21	0.13646747
89	0x3dc070cd	0.09396515
90	0xbc0d3f6e	-0.00862108
91	0xbe42a181	-0.19006921
92	0xbea624d0	-0.3244996
93	0xbe5affff	-0.21386717
94	0x3e93da0c	0.28877294
95	0xbe08213d	-0.1329393
96	0xbdcd76e1	-0.1003244
97	0x3d51edda	0.051252224
98	0xbd84fc4e	-0.06493436
99	0xbe816104	-0.2526933
100	0xbcf635cd	-0.030054951
101	0xbdbd3b41	-0.092398174
102	0x3cbdee5c	0.023184948
103	0x3cb7296f	0.022358624
104	0xbd52bbcd	-0.051448632
105	0xbdea165f	-0.11430048
106	0x3c3cafc9	0.01151652
107	0xbd83b5fe	-0.06431197
108	0xbbeec72c	-0.0072869267
109	0x3d176907	0.036965396
110	0x3ddc88fe	0.10768317
111	0x3e22ca2c	0.15897435
112	0x3e5cbbb2	0.21555975
113	0xbcc1cd51	-0.023657473
114	0xbdd1c79d	-0.10243151
115	0x3c0854ed	0.008321029
116	0xbde6a9b2	-0.112628356
117	0xbe10e42c	-0.1414954
118	0x3ce69066	0.028145026
119	0x3b9115f8	0.0044276677
120	0xbd9d5159	-0.076815315
121	0x3dba23b4	0.09088841
122	0x3d40529d	0.046953786
123	0x3c0a5db8	0.008445196
124	0x3de3cdd4	0.11123243
125	0xbcd3b580	-0.025843382
126	0x3d05e224	0.032686368
127	0xbc1e5c49	-0.009665557
128	0x3e022de0	0.12712812
129	0x3d48e201	0.04904366
130	0x3d40d13f	0.047074553
131	0xbe13fb24	-0.14451271
132	0xbe68cf4c	-0.22735327
133	0xbd09e086	-0.033661388
134	0x3d91743e	0.071022496
135	0xbe6eac5b	-0.23307936
136	0x3d45d45c	0.048298225
137	0xbda2fa12	-0.079578534
138	0x3e856392	0.2605253
139	0x3d86e369	0.06586344
140	0xbe4e2dfe	-0.20134732
141	0x3db16657	0.08662098
142	0xbdffb2c2	-0.12485267
143	0xbc913fb9	-0.01773058
144	0x3e42da5b	0.19028609
145	0x3e095ed4	0.1341508
146	0xbce00d52	-0.027350102
147	0xbdf687ed	-0.120376445
148	0x3c7adb96	0.015311142
149	0x3d82b44e	0.06382047
150	0xbe0b7415	-0.136185
151	0x3e7a4020	0.24438524
152	0x3cc606d5	0.02417318
153	0x3e3464e5	0.17616613
154	0x3e1bf1eb	0.15229003
155	0xbdd843e0	-0.10559821
156	0x3d64b993	0.05584104
157	0xbc8933a1	-0.016748251
158	0xbd1f76d1	-0.03893167
159	0xbd2bfa18	-0.041986555
160	0xbeb2f6cc	-0.34953916
161	0x3ea734d9	0.32657507
162	0xbd8c3157	-0.06845348
163	0xbb24b3e2	-0.0025131633
164	0x3e4033c5	0.18769749
165	0x3e32f923	0.1747785
166	0xbc50c8c9	-0.012743183
167	0xbd8e2b66	-0.06941871
168	0xbd456e97	-0.04820117
169	0xbcc61e38	-0.024184331
170	0xbdab03d9	-0.08350343
171	0x3d1a7867	0.03771248
172	0x3d1a1902	0.037621506
173	0x3d403f3f	0.046935316
174	0xbd3afea8	-0.045653015
175	0xbdf6e20d	-0.120548345
176	0x3d21be81	0.03948832
177	0x3de331b2	0.11093463
178	0xbe792302	-0.2432976
179	0x3e2ea71a	0.17055932
180	0x3ea3d64a	0.31999427
181	0xbd807c23	-0.06273677
182	0x3ca70b78	0.02039121
183	0x3e3141a6	0.17310199
184	0x3dc4dab8	0.0961203
185	0x3db75600	0.0895195
186	0xbdd78631	-0.10523642
187	0x3d7948ec	0.06086056
188	0x3bc1614f	0.0059014927
189	0xbc5a589a	-0.013326788
190	0x3e059296	0.130442
191	0x3bbee644	0.0058257896
192	0x3d9390da	0.072053626
193	0xbde5623e	-0.11200379
194	0xbd74ddaa	-0.059781708
195	0x3e3c0b4e	0.18363687
196	0xbe02b93b	-0.12765972
197	0x3dc7a5b8	0.09748405
198	0xbd67890d	-0.056527186
199	0x3cf62225	0.030045578
200	0x3dce3ead	0.10070548
201	0x3e7f6dec	0.24944276
202	0xbdc17322	-0.09445788
203	0x3e00a3cf	0.12562488
204	0x3d9c8927	0.07643347
205	0xbdbebb82	-0.09313108
206	0xbba91dbe	-0.0051610162
207	0x3dd7ce15	0.10537354
208	0x3ccbf85d	0.024898702
209	0x3ce8960c	0.02839186
210	0xbe30087d	-0.17190738
211	0x3daddcdb	0.084893905
212	0x3c24c64c	0.010057043
213	0xbb6a2e91	-0.0035733322
214	0x3d402707	0.04691222
215	0x3d179147	0.03700378
216	0x3c3fade5	0.0116991745
217	0xbbf08066	-0.007339525
218	0xbe1bfef1	-0.15233971
219	0x3d780f4e	0.06056147
220	0xbd0c9795	-0.034324247
221	0x3e99b4f6	0.30020875
222	0xbd47e804	-0.04880525
223	0x3db33c27	0.087517075
224	0x3e876ba8	0.26449323
225	0xbd7039d2	-0.05864889
226	0xbc898fa7	-0.016792132
227	0x3c8fd364	0.017556854
228	0xbde1a132	-0.11017074
229	0xbe588f3d	-0.21148391
230	0x3dfa7be1	0.12230659
231	0xbcbb1865	-0.02283878
232	0xbe82bc09	-0.25534084
233	0xbd967606	-0.0734673
234	0x3d4f1229	0.05055443
235	0xbe3659a5	-0.17807634
236	0x3c8f2d20	0.017477572
237	0x3cc87431	0.024469467
238	0xbe408a1e	-0.18802688
239	0x3e185ad6	0.14878401
240	0x3c21000c	0.009826671
241	0x3cfbb811	0.030727418
242	0x3d9c91c9	0.07644994
243	0x3c2fa2a6	0.010719931
244	0x3da34e8e	0.079739675
245	0xbd9ad193	-0.07559504
246	0x3e200fa8	0.15630972
247	0xbd3c1105	-0.04591467
248	0x3cf83b7c	0.030301802
249	0x3dbb50a8	0.09146243
250	0x3e156d03	0.14592366
251	0xbd9e7d6d	-0.07738767
252	0x3db2a20b	0.087223135
253	0xbe3567c9	-0.17715372
254	0x3cf43c93	0.02981404
255	0xbd616fcb	-0.055038255

fc3.bias f4 [10]
0	0x3ba70b73	0.0050978004
1	0xbecebca4	-0.40378296
2	0x3e3fcb49	0.18729891
3	0x3e0defa3	0.13860945
4	0x3ee03dd0	0.4379716
5	0xbe60623c	-0.21912473
6	0xbc8024cb	-0.015642544
7	0xbe9881ca	-0.2978652
8	0x3ef3ea18	0.47639537
9	0xbe8fb92f	-0.2807097
